…
I0718 18:34:54.326511 32684 solver.cpp:106] Creating training net from net file: /home/leejang/lib/two_stream_ssd_caffe/caffe/models/robot_regression/robot_regression_7cv_2fc_single_robot_only.prototxt
I0718 18:34:54.326829 32684 net.cpp:322] The NetState phase (0) differed from the phase (1) specified by a rule in layer data
I0718 18:34:54.327023 32684 net.cpp:58] Initializing net from parameters: 
name: "RobotRegressionNet"
state {
  phase: TRAIN
  level: 0
  stage: ""
}
layer {
  name: "data"
  type: "HDF5Data"
  top: "data"
  top: "label"
  include {
    phase: TRAIN
  }
  hdf5_data_param {
    source: "/fast-data/leejang/hdf5_files_with_new_robot_videos/single_robot_only_train_list.txt"
    batch_size: 64
  }
}
layer {
  name: "conv1"
  type: "Convolution"
  bottom: "data"
  top: "conv1"
  param {
    lr_mult: 1
    decay_mult: 1
  }
  param {
    lr_mult: 2
    decay_mult: 0
  }
  convolution_param {
    num_output: 256
    pad: 2
    kernel_size: 5
    stride: 1
    weight_filler {
      type: "xavier"
    }
    bias_filler {
      type: "constant"
      value: 0
    }
  }
}
layer {
  name: "relu1"
  type: "ReLU"
  bottom: "conv1"
  top: "conv1"
}
layer {
  name: "conv2"
  type: "Convolution"
  bottom: "conv1"
  top: "conv2"
  param {
    lr_mult: 1
    decay_mult: 1
  }
  param {
    lr_mult: 2
    decay_mult: 0
  }
  convolution_param {
    num_output: 256
    pad: 2
    kernel_size: 5
    stride: 1
    weight_filler {
      type: "xavier"
    }
    bias_filler {
      type: "constant"
      value: 0
    }
  }
}
layer {
  name: "relu2"
  type: "ReLU"
  bottom: "conv2"
  top: "conv2"
}
layer {
  name: "conv3"
  type: "Convolution"
  bottom: "conv2"
  top: "conv3"
  param {
    lr_mult: 1
    decay_mult: 1
  }
  param {
    lr_mult: 2
    decay_mult: 0
  }
  convolution_param {
    num_output: 256
    pad: 2
    kernel_size: 5
    stride: 1
    weight_filler {
      type: "xavier"
    }
    bias_filler {
      type: "constant"
      value: 0
    }
  }
}
layer {
  name: "relu3"
  type: "ReLU"
  bottom: "conv3"
  top: "conv3"
}
layer {
  name: "conv4"
  type: "Convolution"
  bottom: "conv3"
  top: "conv4"
  param {
    lr_mult: 1
    decay_mult: 1
  }
  param {
    lr_mult: 2
    decay_mult: 0
  }
  convolution_param {
    num_output: 256
    pad: 2
    kernel_size: 5
    stride: 1
    weight_filler {
      type: "xavier"
    }
    bias_filler {
      type: "constant"
      value: 0
    }
  }
}
layer {
  name: "relu4"
  type: "ReLU"
  bottom: "conv4"
  top: "conv4"
}
layer {
  name: "conv5"
  type: "Convolution"
  bottom: "conv4"
  top: "conv5"
  param {
    lr_mult: 1
    decay_mult: 1
  }
  param {
    lr_mult: 2
    decay_mult: 0
  }
  convolution_param {
    num_output: 256
    pad: 2
    kernel_size: 5
    stride: 1
    weight_filler {
      type: "xavier"
    }
    bias_filler {
      type: "constant"
      value: 0
    }
  }
}
layer {
  name: "relu5"
  type: "ReLU"
  bottom: "conv5"
  top: "conv5"
}
layer {
  name: "conv6"
  type: "Convolution"
  bottom: "conv5"
  top: "conv6"
  param {
    lr_mult: 1
    decay_mult: 1
  }
  param {
    lr_mult: 2
    decay_mult: 0
  }
  convolution_param {
    num_output: 256
    pad: 2
    kernel_size: 5
    stride: 1
    weight_filler {
      type: "xavier"
    }
    bias_filler {
      type: "constant"
      value: 0
    }
  }
}
layer {
  name: "relu6"
  type: "ReLU"
  bottom: "conv6"
  top: "conv6"
}
layer {
  name: "conv7"
  type: "Convolution"
  bottom: "conv6"
  top: "conv7"
  param {
    lr_mult: 1
    decay_mult: 1
  }
  param {
    lr_mult: 2
    decay_mult: 0
  }
  convolution_param {
    num_output: 256
    pad: 2
    kernel_size: 5
    stride: 1
    weight_filler {
      type: "xavier"
    }
    bias_filler {
      type: "constant"
      value: 0
    }
  }
}
layer {
  name: "relu7"
  type: "ReLU"
  bottom: "conv7"
  top: "conv7"
}
layer {
  name: "fc1"
  type: "Convolution"
  bottom: "conv7"
  top: "fc1"
  param {
    lr_mult: 1
    decay_mult: 1
  }
  param {
    lr_mult: 2
    decay_mult: 0
  }
  convolution_param {
    num_output: 1024
    pad: 6
    kernel_size: 5
    stride: 1
    weight_filler {
      type: "xavier"
    }
    bias_filler {
      type: "constant"
      value: 0
    }
    dilation: 3
  }
}
layer {
  name: "relu8"
  type: "ReLU"
  bottom: "fc1"
  top: "fc1"
}
layer {
  name: "fc2"
  type: "Convolution"
  bottom: "fc1"
  top: "fc2"
  param {
    lr_mult: 1
    decay_mult: 1
  }
  param {
    lr_mult: 2
    decay_mult: 0
  }
  convolution_param {
    num_output: 256
    kernel_size: 1
    weight_filler {
      type: "xavier"
    }
    bias_filler {
      type: "constant"
      value: 0
    }
  }
}
layer {
  name: "loss"
  type: "EuclideanLoss"
  bottom: "fc2"
  bottom: "label"
  top: "loss"
  include {
    phase: TRAIN
  }
}
I0718 18:34:54.327203 32684 layer_factory.hpp:77] Creating layer data
I0718 18:34:54.327220 32684 net.cpp:100] Creating Layer data
I0718 18:34:54.327229 32684 net.cpp:408] data -> data
I0718 18:34:54.327251 32684 net.cpp:408] data -> label
I0718 18:34:54.327268 32684 hdf5_data_layer.cpp:79] Loading list of HDF5 filenames from: /fast-data/leejang/hdf5_files_with_new_robot_videos/single_robot_only_train_list.txt
I0718 18:34:54.327323 32684 hdf5_data_layer.cpp:93] Number of HDF5 files: 20
I0718 18:34:54.328480 32684 hdf5.cpp:32] Datatype class: H5T_FLOAT
I0718 18:34:54.926580 32684 net.cpp:150] Setting up data
I0718 18:34:54.926625 32684 net.cpp:157] Top shape: 64 256 25 25 (10240000)
I0718 18:34:54.926630 32684 net.cpp:157] Top shape: 64 256 25 25 (10240000)
I0718 18:34:54.926632 32684 net.cpp:165] Memory required for data: 81920000
I0718 18:34:54.926650 32684 layer_factory.hpp:77] Creating layer conv1
I0718 18:34:54.926681 32684 net.cpp:100] Creating Layer conv1
I0718 18:34:54.926687 32684 net.cpp:434] conv1 <- data
I0718 18:34:54.926705 32684 net.cpp:408] conv1 -> conv1
I0718 18:34:55.677052 32684 net.cpp:150] Setting up conv1
I0718 18:34:55.677093 32684 net.cpp:157] Top shape: 64 256 25 25 (10240000)
I0718 18:34:55.677096 32684 net.cpp:165] Memory required for data: 122880000
I0718 18:34:55.677122 32684 layer_factory.hpp:77] Creating layer relu1
I0718 18:34:55.677152 32684 net.cpp:100] Creating Layer relu1
I0718 18:34:55.677156 32684 net.cpp:434] relu1 <- conv1
I0718 18:34:55.677161 32684 net.cpp:395] relu1 -> conv1 (in-place)
I0718 18:34:55.677328 32684 net.cpp:150] Setting up relu1
I0718 18:34:55.677337 32684 net.cpp:157] Top shape: 64 256 25 25 (10240000)
I0718 18:34:55.677341 32684 net.cpp:165] Memory required for data: 163840000
I0718 18:34:55.677345 32684 layer_factory.hpp:77] Creating layer conv2
I0718 18:34:55.677357 32684 net.cpp:100] Creating Layer conv2
I0718 18:34:55.677364 32684 net.cpp:434] conv2 <- conv1
I0718 18:34:55.677371 32684 net.cpp:408] conv2 -> conv2
I0718 18:34:55.686501 32684 net.cpp:150] Setting up conv2
I0718 18:34:55.686522 32684 net.cpp:157] Top shape: 64 256 25 25 (10240000)
I0718 18:34:55.686525 32684 net.cpp:165] Memory required for data: 204800000
I0718 18:34:55.686534 32684 layer_factory.hpp:77] Creating layer relu2
I0718 18:34:55.686550 32684 net.cpp:100] Creating Layer relu2
I0718 18:34:55.686553 32684 net.cpp:434] relu2 <- conv2
I0718 18:34:55.686558 32684 net.cpp:395] relu2 -> conv2 (in-place)
I0718 18:34:55.686713 32684 net.cpp:150] Setting up relu2
I0718 18:34:55.686722 32684 net.cpp:157] Top shape: 64 256 25 25 (10240000)
I0718 18:34:55.686725 32684 net.cpp:165] Memory required for data: 245760000
I0718 18:34:55.686728 32684 layer_factory.hpp:77] Creating layer conv3
I0718 18:34:55.686746 32684 net.cpp:100] Creating Layer conv3
I0718 18:34:55.686776 32684 net.cpp:434] conv3 <- conv2
I0718 18:34:55.686782 32684 net.cpp:408] conv3 -> conv3
I0718 18:34:55.695889 32684 net.cpp:150] Setting up conv3
I0718 18:34:55.695919 32684 net.cpp:157] Top shape: 64 256 25 25 (10240000)
I0718 18:34:55.695924 32684 net.cpp:165] Memory required for data: 286720000
I0718 18:34:55.695933 32684 layer_factory.hpp:77] Creating layer relu3
I0718 18:34:55.695940 32684 net.cpp:100] Creating Layer relu3
I0718 18:34:55.695945 32684 net.cpp:434] relu3 <- conv3
I0718 18:34:55.695948 32684 net.cpp:395] relu3 -> conv3 (in-place)
I0718 18:34:55.696375 32684 net.cpp:150] Setting up relu3
I0718 18:34:55.696385 32684 net.cpp:157] Top shape: 64 256 25 25 (10240000)
I0718 18:34:55.696408 32684 net.cpp:165] Memory required for data: 327680000
I0718 18:34:55.696411 32684 layer_factory.hpp:77] Creating layer conv4
I0718 18:34:55.696429 32684 net.cpp:100] Creating Layer conv4
I0718 18:34:55.696431 32684 net.cpp:434] conv4 <- conv3
I0718 18:34:55.696437 32684 net.cpp:408] conv4 -> conv4
I0718 18:34:55.705404 32684 net.cpp:150] Setting up conv4
I0718 18:34:55.705425 32684 net.cpp:157] Top shape: 64 256 25 25 (10240000)
I0718 18:34:55.705427 32684 net.cpp:165] Memory required for data: 368640000
I0718 18:34:55.705433 32684 layer_factory.hpp:77] Creating layer relu4
I0718 18:34:55.705441 32684 net.cpp:100] Creating Layer relu4
I0718 18:34:55.705446 32684 net.cpp:434] relu4 <- conv4
I0718 18:34:55.705451 32684 net.cpp:395] relu4 -> conv4 (in-place)
I0718 18:34:55.705636 32684 net.cpp:150] Setting up relu4
I0718 18:34:55.705646 32684 net.cpp:157] Top shape: 64 256 25 25 (10240000)
I0718 18:34:55.705648 32684 net.cpp:165] Memory required for data: 409600000
I0718 18:34:55.705652 32684 layer_factory.hpp:77] Creating layer conv5
I0718 18:34:55.705662 32684 net.cpp:100] Creating Layer conv5
I0718 18:34:55.705665 32684 net.cpp:434] conv5 <- conv4
I0718 18:34:55.705670 32684 net.cpp:408] conv5 -> conv5
I0718 18:34:55.714668 32684 net.cpp:150] Setting up conv5
I0718 18:34:55.714689 32684 net.cpp:157] Top shape: 64 256 25 25 (10240000)
I0718 18:34:55.714692 32684 net.cpp:165] Memory required for data: 450560000
I0718 18:34:55.714701 32684 layer_factory.hpp:77] Creating layer relu5
I0718 18:34:55.714709 32684 net.cpp:100] Creating Layer relu5
I0718 18:34:55.714720 32684 net.cpp:434] relu5 <- conv5
I0718 18:34:55.714725 32684 net.cpp:395] relu5 -> conv5 (in-place)
I0718 18:34:55.714885 32684 net.cpp:150] Setting up relu5
I0718 18:34:55.714895 32684 net.cpp:157] Top shape: 64 256 25 25 (10240000)
I0718 18:34:55.714898 32684 net.cpp:165] Memory required for data: 491520000
I0718 18:34:55.714901 32684 layer_factory.hpp:77] Creating layer conv6
I0718 18:34:55.714911 32684 net.cpp:100] Creating Layer conv6
I0718 18:34:55.714915 32684 net.cpp:434] conv6 <- conv5
I0718 18:34:55.714987 32684 net.cpp:408] conv6 -> conv6
I0718 18:34:55.723990 32684 net.cpp:150] Setting up conv6
I0718 18:34:55.724020 32684 net.cpp:157] Top shape: 64 256 25 25 (10240000)
I0718 18:34:55.724025 32684 net.cpp:165] Memory required for data: 532480000
I0718 18:34:55.724030 32684 layer_factory.hpp:77] Creating layer relu6
I0718 18:34:55.724037 32684 net.cpp:100] Creating Layer relu6
I0718 18:34:55.724048 32684 net.cpp:434] relu6 <- conv6
I0718 18:34:55.724052 32684 net.cpp:395] relu6 -> conv6 (in-place)
I0718 18:34:55.724494 32684 net.cpp:150] Setting up relu6
I0718 18:34:55.724514 32684 net.cpp:157] Top shape: 64 256 25 25 (10240000)
I0718 18:34:55.724535 32684 net.cpp:165] Memory required for data: 573440000
I0718 18:34:55.724539 32684 layer_factory.hpp:77] Creating layer conv7
I0718 18:34:55.724556 32684 net.cpp:100] Creating Layer conv7
I0718 18:34:55.724560 32684 net.cpp:434] conv7 <- conv6
I0718 18:34:55.724565 32684 net.cpp:408] conv7 -> conv7
I0718 18:34:55.733906 32684 net.cpp:150] Setting up conv7
I0718 18:34:55.733932 32684 net.cpp:157] Top shape: 64 256 25 25 (10240000)
I0718 18:34:55.733934 32684 net.cpp:165] Memory required for data: 614400000
I0718 18:34:55.733942 32684 layer_factory.hpp:77] Creating layer relu7
I0718 18:34:55.733975 32684 net.cpp:100] Creating Layer relu7
I0718 18:34:55.733980 32684 net.cpp:434] relu7 <- conv7
I0718 18:34:55.733985 32684 net.cpp:395] relu7 -> conv7 (in-place)
I0718 18:34:55.734146 32684 net.cpp:150] Setting up relu7
I0718 18:34:55.734156 32684 net.cpp:157] Top shape: 64 256 25 25 (10240000)
I0718 18:34:55.734159 32684 net.cpp:165] Memory required for data: 655360000
I0718 18:34:55.734163 32684 layer_factory.hpp:77] Creating layer fc1
I0718 18:34:55.734174 32684 net.cpp:100] Creating Layer fc1
I0718 18:34:55.734177 32684 net.cpp:434] fc1 <- conv7
I0718 18:34:55.734184 32684 net.cpp:408] fc1 -> fc1
I0718 18:34:55.767665 32684 net.cpp:150] Setting up fc1
I0718 18:34:55.767704 32684 net.cpp:157] Top shape: 64 1024 25 25 (40960000)
I0718 18:34:55.767707 32684 net.cpp:165] Memory required for data: 819200000
I0718 18:34:55.767716 32684 layer_factory.hpp:77] Creating layer relu8
I0718 18:34:55.767736 32684 net.cpp:100] Creating Layer relu8
I0718 18:34:55.767740 32684 net.cpp:434] relu8 <- fc1
I0718 18:34:55.767747 32684 net.cpp:395] relu8 -> fc1 (in-place)
I0718 18:34:55.768030 32684 net.cpp:150] Setting up relu8
I0718 18:34:55.768039 32684 net.cpp:157] Top shape: 64 1024 25 25 (40960000)
I0718 18:34:55.768043 32684 net.cpp:165] Memory required for data: 983040000
I0718 18:34:55.768046 32684 layer_factory.hpp:77] Creating layer fc2
I0718 18:34:55.768061 32684 net.cpp:100] Creating Layer fc2
I0718 18:34:55.768066 32684 net.cpp:434] fc2 <- fc1
I0718 18:34:55.768071 32684 net.cpp:408] fc2 -> fc2
I0718 18:34:55.770993 32684 net.cpp:150] Setting up fc2
I0718 18:34:55.771013 32684 net.cpp:157] Top shape: 64 256 25 25 (10240000)
I0718 18:34:55.771016 32684 net.cpp:165] Memory required for data: 1024000000
I0718 18:34:55.771026 32684 layer_factory.hpp:77] Creating layer loss
I0718 18:34:55.771042 32684 net.cpp:100] Creating Layer loss
I0718 18:34:55.771066 32684 net.cpp:434] loss <- fc2
I0718 18:34:55.771071 32684 net.cpp:434] loss <- label
I0718 18:34:55.771080 32684 net.cpp:408] loss -> loss
I0718 18:34:55.771123 32684 net.cpp:150] Setting up loss
…
