…
I0714 22:32:04.863378   462 solver.cpp:106] Creating training net from net file: /home/leejang/lib/two_stream_ssd_caffe/caffe/models/robot_regression/robot_regression_7cv_2fc_con10.prototxt
I0714 22:32:04.863678   462 net.cpp:322] The NetState phase (0) differed from the phase (1) specified by a rule in layer data
I0714 22:32:04.863857   462 net.cpp:58] Initializing net from parameters: 
name: "RobotRegressionNet"
state {
  phase: TRAIN
  level: 0
  stage: ""
}
layer {
  name: "data"
  type: "HDF5Data"
  top: "data"
  top: "label"
  include {
    phase: TRAIN
  }
  hdf5_data_param {
    source: "/fast-data/leejang/two_stream_regression/con10_train_list.txt"
    batch_size: 10
  }
}
layer {
  name: "conv1"
  type: "Convolution"
  bottom: "data"
  top: "conv1"
  param {
    lr_mult: 1
    decay_mult: 1
  }
  param {
    lr_mult: 2
    decay_mult: 0
  }
  convolution_param {
    num_output: 256
    pad: 2
    kernel_size: 5
    stride: 1
    weight_filler {
      type: "xavier"
    }
    bias_filler {
      type: "constant"
      value: 0
    }
  }
}
layer {
  name: "relu1"
  type: "ReLU"
  bottom: "conv1"
  top: "conv1"
}
layer {
  name: "conv2"
  type: "Convolution"
  bottom: "conv1"
  top: "conv2"
  param {
    lr_mult: 1
    decay_mult: 1
  }
  param {
    lr_mult: 2
    decay_mult: 0
  }
  convolution_param {
    num_output: 256
    pad: 2
    kernel_size: 5
    stride: 1
    weight_filler {
      type: "xavier"
    }
    bias_filler {
      type: "constant"
      value: 0
    }
  }
}
layer {
  name: "relu2"
  type: "ReLU"
  bottom: "conv2"
  top: "conv2"
}
layer {
  name: "conv3"
  type: "Convolution"
  bottom: "conv2"
  top: "conv3"
  param {
    lr_mult: 1
    decay_mult: 1
  }
  param {
    lr_mult: 2
    decay_mult: 0
  }
  convolution_param {
    num_output: 256
    pad: 2
    kernel_size: 5
    stride: 1
    weight_filler {
      type: "xavier"
    }
    bias_filler {
      type: "constant"
      value: 0
    }
  }
}
layer {
  name: "relu3"
  type: "ReLU"
  bottom: "conv3"
  top: "conv3"
}
layer {
  name: "conv4"
  type: "Convolution"
  bottom: "conv3"
  top: "conv4"
  param {
    lr_mult: 1
    decay_mult: 1
  }
  param {
    lr_mult: 2
    decay_mult: 0
  }
  convolution_param {
    num_output: 256
    pad: 2
    kernel_size: 5
    stride: 1
    weight_filler {
      type: "xavier"
    }
    bias_filler {
      type: "constant"
      value: 0
    }
  }
}
layer {
  name: "relu4"
  type: "ReLU"
  bottom: "conv4"
  top: "conv4"
}
layer {
  name: "conv5"
  type: "Convolution"
  bottom: "conv4"
  top: "conv5"
  param {
    lr_mult: 1
    decay_mult: 1
  }
  param {
    lr_mult: 2
    decay_mult: 0
  }
  convolution_param {
    num_output: 256
    pad: 2
    kernel_size: 5
    stride: 1
    weight_filler {
      type: "xavier"
    }
    bias_filler {
      type: "constant"
      value: 0
    }
  }
}
layer {
  name: "relu5"
  type: "ReLU"
  bottom: "conv5"
  top: "conv5"
}
layer {
  name: "conv6"
  type: "Convolution"
  bottom: "conv5"
  top: "conv6"
  param {
    lr_mult: 1
    decay_mult: 1
  }
  param {
    lr_mult: 2
    decay_mult: 0
  }
  convolution_param {
    num_output: 256
    pad: 2
    kernel_size: 5
    stride: 1
    weight_filler {
      type: "xavier"
    }
    bias_filler {
      type: "constant"
      value: 0
    }
  }
}
layer {
  name: "relu6"
  type: "ReLU"
  bottom: "conv6"
  top: "conv6"
}
layer {
  name: "conv7"
  type: "Convolution"
  bottom: "conv6"
  top: "conv7"
  param {
    lr_mult: 1
    decay_mult: 1
  }
  param {
    lr_mult: 2
    decay_mult: 0
  }
  convolution_param {
    num_output: 256
    pad: 2
    kernel_size: 5
    stride: 1
    weight_filler {
      type: "xavier"
    }
    bias_filler {
      type: "constant"
      value: 0
    }
  }
}
layer {
  name: "relu7"
  type: "ReLU"
  bottom: "conv7"
  top: "conv7"
}
layer {
  name: "fc1"
  type: "Convolution"
  bottom: "conv7"
  top: "fc1"
  param {
    lr_mult: 1
    decay_mult: 1
  }
  param {
    lr_mult: 2
    decay_mult: 0
  }
  convolution_param {
    num_output: 1024
    pad: 6
    kernel_size: 5
    stride: 1
    weight_filler {
      type: "xavier"
    }
    bias_filler {
      type: "constant"
      value: 0
    }
    dilation: 3
  }
}
layer {
  name: "relu8"
  type: "ReLU"
  bottom: "fc1"
  top: "fc1"
}
layer {
  name: "fc2"
  type: "Convolution"
  bottom: "fc1"
  top: "fc2"
  param {
    lr_mult: 1
    decay_mult: 1
  }
  param {
    lr_mult: 2
    decay_mult: 0
  }
  convolution_param {
    num_output: 256
    kernel_size: 1
    weight_filler {
      type: "xavier"
    }
    bias_filler {
      type: "constant"
      value: 0
    }
  }
}
layer {
  name: "loss"
  type: "EuclideanLoss"
  bottom: "fc2"
  bottom: "label"
  top: "loss"
  include {
    phase: TRAIN
  }
}
I0714 22:32:04.863972   462 layer_factory.hpp:77] Creating layer data
I0714 22:32:04.863989   462 net.cpp:100] Creating Layer data
I0714 22:32:04.863996   462 net.cpp:408] data -> data
I0714 22:32:04.864020   462 net.cpp:408] data -> label
I0714 22:32:04.864035   462 hdf5_data_layer.cpp:79] Loading list of HDF5 filenames from: /fast-data/leejang/two_stream_regression/con10_train_list.txt
I0714 22:32:04.864106   462 hdf5_data_layer.cpp:93] Number of HDF5 files: 32
I0714 22:32:04.865269   462 hdf5.cpp:32] Datatype class: H5T_FLOAT
I0714 22:32:05.804940   462 net.cpp:150] Setting up data
I0714 22:32:05.804987   462 net.cpp:157] Top shape: 10 2560 25 25 (16000000)
I0714 22:32:05.804993   462 net.cpp:157] Top shape: 10 256 25 25 (1600000)
I0714 22:32:05.804996   462 net.cpp:165] Memory required for data: 70400000
I0714 22:32:05.805012   462 layer_factory.hpp:77] Creating layer conv1
I0714 22:32:05.805043   462 net.cpp:100] Creating Layer conv1
I0714 22:32:05.805048   462 net.cpp:434] conv1 <- data
I0714 22:32:05.805068   462 net.cpp:408] conv1 -> conv1
I0714 22:32:06.641422   462 net.cpp:150] Setting up conv1
I0714 22:32:06.641481   462 net.cpp:157] Top shape: 10 256 25 25 (1600000)
I0714 22:32:06.641490   462 net.cpp:165] Memory required for data: 76800000
I0714 22:32:06.641537   462 layer_factory.hpp:77] Creating layer relu1
I0714 22:32:06.641635   462 net.cpp:100] Creating Layer relu1
I0714 22:32:06.641643   462 net.cpp:434] relu1 <- conv1
I0714 22:32:06.641649   462 net.cpp:395] relu1 -> conv1 (in-place)
I0714 22:32:06.641824   462 net.cpp:150] Setting up relu1
I0714 22:32:06.641834   462 net.cpp:157] Top shape: 10 256 25 25 (1600000)
I0714 22:32:06.641836   462 net.cpp:165] Memory required for data: 83200000
I0714 22:32:06.641839   462 layer_factory.hpp:77] Creating layer conv2
I0714 22:32:06.641852   462 net.cpp:100] Creating Layer conv2
I0714 22:32:06.641857   462 net.cpp:434] conv2 <- conv1
I0714 22:32:06.641863   462 net.cpp:408] conv2 -> conv2
I0714 22:32:06.652385   462 net.cpp:150] Setting up conv2
I0714 22:32:06.652426   462 net.cpp:157] Top shape: 10 256 25 25 (1600000)
I0714 22:32:06.652429   462 net.cpp:165] Memory required for data: 89600000
I0714 22:32:06.652447   462 layer_factory.hpp:77] Creating layer relu2
I0714 22:32:06.652463   462 net.cpp:100] Creating Layer relu2
I0714 22:32:06.652467   462 net.cpp:434] relu2 <- conv2
I0714 22:32:06.652472   462 net.cpp:395] relu2 -> conv2 (in-place)
I0714 22:32:06.652626   462 net.cpp:150] Setting up relu2
I0714 22:32:06.652635   462 net.cpp:157] Top shape: 10 256 25 25 (1600000)
I0714 22:32:06.652638   462 net.cpp:165] Memory required for data: 96000000
I0714 22:32:06.652642   462 layer_factory.hpp:77] Creating layer conv3
I0714 22:32:06.652653   462 net.cpp:100] Creating Layer conv3
I0714 22:32:06.652657   462 net.cpp:434] conv3 <- conv2
I0714 22:32:06.652662   462 net.cpp:408] conv3 -> conv3
I0714 22:32:06.662179   462 net.cpp:150] Setting up conv3
I0714 22:32:06.662209   462 net.cpp:157] Top shape: 10 256 25 25 (1600000)
I0714 22:32:06.662211   462 net.cpp:165] Memory required for data: 102400000
I0714 22:32:06.662221   462 layer_factory.hpp:77] Creating layer relu3
I0714 22:32:06.662228   462 net.cpp:100] Creating Layer relu3
I0714 22:32:06.662240   462 net.cpp:434] relu3 <- conv3
I0714 22:32:06.662263   462 net.cpp:395] relu3 -> conv3 (in-place)
I0714 22:32:06.662709   462 net.cpp:150] Setting up relu3
I0714 22:32:06.662729   462 net.cpp:157] Top shape: 10 256 25 25 (1600000)
I0714 22:32:06.662732   462 net.cpp:165] Memory required for data: 108800000
I0714 22:32:06.662736   462 layer_factory.hpp:77] Creating layer conv4
I0714 22:32:06.662753   462 net.cpp:100] Creating Layer conv4
I0714 22:32:06.662756   462 net.cpp:434] conv4 <- conv3
I0714 22:32:06.662781   462 net.cpp:408] conv4 -> conv4
I0714 22:32:06.672083   462 net.cpp:150] Setting up conv4
I0714 22:32:06.672104   462 net.cpp:157] Top shape: 10 256 25 25 (1600000)
I0714 22:32:06.672107   462 net.cpp:165] Memory required for data: 115200000
I0714 22:32:06.672122   462 layer_factory.hpp:77] Creating layer relu4
I0714 22:32:06.672139   462 net.cpp:100] Creating Layer relu4
I0714 22:32:06.672142   462 net.cpp:434] relu4 <- conv4
I0714 22:32:06.672166   462 net.cpp:395] relu4 -> conv4 (in-place)
I0714 22:32:06.672328   462 net.cpp:150] Setting up relu4
I0714 22:32:06.672338   462 net.cpp:157] Top shape: 10 256 25 25 (1600000)
I0714 22:32:06.672340   462 net.cpp:165] Memory required for data: 121600000
I0714 22:32:06.672344   462 layer_factory.hpp:77] Creating layer conv5
I0714 22:32:06.672360   462 net.cpp:100] Creating Layer conv5
I0714 22:32:06.672403   462 net.cpp:434] conv5 <- conv4
I0714 22:32:06.672415   462 net.cpp:408] conv5 -> conv5
I0714 22:32:06.681893   462 net.cpp:150] Setting up conv5
I0714 22:32:06.681923   462 net.cpp:157] Top shape: 10 256 25 25 (1600000)
I0714 22:32:06.681926   462 net.cpp:165] Memory required for data: 128000000
I0714 22:32:06.681954   462 layer_factory.hpp:77] Creating layer relu5
I0714 22:32:06.681980   462 net.cpp:100] Creating Layer relu5
I0714 22:32:06.681983   462 net.cpp:434] relu5 <- conv5
I0714 22:32:06.681990   462 net.cpp:395] relu5 -> conv5 (in-place)
I0714 22:32:06.682158   462 net.cpp:150] Setting up relu5
I0714 22:32:06.682241   462 net.cpp:157] Top shape: 10 256 25 25 (1600000)
I0714 22:32:06.682245   462 net.cpp:165] Memory required for data: 134400000
I0714 22:32:06.682247   462 layer_factory.hpp:77] Creating layer conv6
I0714 22:32:06.682266   462 net.cpp:100] Creating Layer conv6
I0714 22:32:06.682274   462 net.cpp:434] conv6 <- conv5
I0714 22:32:06.682281   462 net.cpp:408] conv6 -> conv6
I0714 22:32:06.691429   462 net.cpp:150] Setting up conv6
I0714 22:32:06.691449   462 net.cpp:157] Top shape: 10 256 25 25 (1600000)
I0714 22:32:06.691452   462 net.cpp:165] Memory required for data: 140800000
I0714 22:32:06.691458   462 layer_factory.hpp:77] Creating layer relu6
I0714 22:32:06.691467   462 net.cpp:100] Creating Layer relu6
I0714 22:32:06.691470   462 net.cpp:434] relu6 <- conv6
I0714 22:32:06.691475   462 net.cpp:395] relu6 -> conv6 (in-place)
I0714 22:32:06.691941   462 net.cpp:150] Setting up relu6
I0714 22:32:06.691959   462 net.cpp:157] Top shape: 10 256 25 25 (1600000)
I0714 22:32:06.691978   462 net.cpp:165] Memory required for data: 147200000
I0714 22:32:06.691982   462 layer_factory.hpp:77] Creating layer conv7
I0714 22:32:06.691993   462 net.cpp:100] Creating Layer conv7
I0714 22:32:06.691998   462 net.cpp:434] conv7 <- conv6
I0714 22:32:06.692070   462 net.cpp:408] conv7 -> conv7
I0714 22:32:06.701195   462 net.cpp:150] Setting up conv7
I0714 22:32:06.701225   462 net.cpp:157] Top shape: 10 256 25 25 (1600000)
I0714 22:32:06.701227   462 net.cpp:165] Memory required for data: 153600000
I0714 22:32:06.701234   462 layer_factory.hpp:77] Creating layer relu7
I0714 22:32:06.701241   462 net.cpp:100] Creating Layer relu7
I0714 22:32:06.701243   462 net.cpp:434] relu7 <- conv7
I0714 22:32:06.701292   462 net.cpp:395] relu7 -> conv7 (in-place)
I0714 22:32:06.701457   462 net.cpp:150] Setting up relu7
I0714 22:32:06.701465   462 net.cpp:157] Top shape: 10 256 25 25 (1600000)
I0714 22:32:06.701469   462 net.cpp:165] Memory required for data: 160000000
I0714 22:32:06.701472   462 layer_factory.hpp:77] Creating layer fc1
I0714 22:32:06.701483   462 net.cpp:100] Creating Layer fc1
I0714 22:32:06.701489   462 net.cpp:434] fc1 <- conv7
I0714 22:32:06.701668   462 net.cpp:408] fc1 -> fc1
I0714 22:32:06.736850   462 net.cpp:150] Setting up fc1
I0714 22:32:06.736899   462 net.cpp:157] Top shape: 10 1024 25 25 (6400000)
I0714 22:32:06.736903   462 net.cpp:165] Memory required for data: 185600000
I0714 22:32:06.736919   462 layer_factory.hpp:77] Creating layer relu8
I0714 22:32:06.736939   462 net.cpp:100] Creating Layer relu8
I0714 22:32:06.736943   462 net.cpp:434] relu8 <- fc1
I0714 22:32:06.736949   462 net.cpp:395] relu8 -> fc1 (in-place)
I0714 22:32:06.737181   462 net.cpp:150] Setting up relu8
I0714 22:32:06.737262   462 net.cpp:157] Top shape: 10 1024 25 25 (6400000)
I0714 22:32:06.737267   462 net.cpp:165] Memory required for data: 211200000
I0714 22:32:06.737270   462 layer_factory.hpp:77] Creating layer fc2
I0714 22:32:06.737282   462 net.cpp:100] Creating Layer fc2
I0714 22:32:06.737285   462 net.cpp:434] fc2 <- fc1
I0714 22:32:06.737293   462 net.cpp:408] fc2 -> fc2
I0714 22:32:06.740653   462 net.cpp:150] Setting up fc2
I0714 22:32:06.740694   462 net.cpp:157] Top shape: 10 256 25 25 (1600000)
I0714 22:32:06.740696   462 net.cpp:165] Memory required for data: 217600000
I0714 22:32:06.740718   462 layer_factory.hpp:77] Creating layer loss
I0714 22:32:06.740726   462 net.cpp:100] Creating Layer loss
I0714 22:32:06.740731   462 net.cpp:434] loss <- fc2
I0714 22:32:06.740734   462 net.cpp:434] loss <- label
I0714 22:32:06.740741   462 net.cpp:408] loss -> loss
I0714 22:32:06.740787   462 net.cpp:150] Setting up loss
…
