…
I0715 16:04:00.921962  9278 solver.cpp:106] Creating training net from net file: /home/leejang/lib/two_stream_ssd_caffe/caffe/models/robot_regression/robot_regression_7cv_2fc_con5.prototxt
I0715 16:04:00.922601  9278 net.cpp:322] The NetState phase (0) differed from the phase (1) specified by a rule in layer data
I0715 16:04:00.923012  9278 net.cpp:58] Initializing net from parameters: 
name: "RobotRegressionNet"
state {
  phase: TRAIN
  level: 0
  stage: ""
}
layer {
  name: "data"
  type: "HDF5Data"
  top: "data"
  top: "label"
  include {
    phase: TRAIN
  }
  hdf5_data_param {
    source: "/fast-data/leejang/two_stream_regression/con5_train_list.txt"
    batch_size: 10
  }
}
layer {
  name: "conv1"
  type: "Convolution"
  bottom: "data"
  top: "conv1"
  param {
    lr_mult: 1
    decay_mult: 1
  }
  param {
    lr_mult: 2
    decay_mult: 0
  }
  convolution_param {
    num_output: 256
    pad: 2
    kernel_size: 5
    stride: 1
    weight_filler {
      type: "xavier"
    }
    bias_filler {
      type: "constant"
      value: 0
    }
  }
}
layer {
  name: "relu1"
  type: "ReLU"
  bottom: "conv1"
  top: "conv1"
}
layer {
  name: "conv2"
  type: "Convolution"
  bottom: "conv1"
  top: "conv2"
  param {
    lr_mult: 1
    decay_mult: 1
  }
  param {
    lr_mult: 2
    decay_mult: 0
  }
  convolution_param {
    num_output: 256
    pad: 2
    kernel_size: 5
    stride: 1
    weight_filler {
      type: "xavier"
    }
    bias_filler {
      type: "constant"
      value: 0
    }
  }
}
layer {
  name: "relu2"
  type: "ReLU"
  bottom: "conv2"
  top: "conv2"
}
layer {
  name: "conv3"
  type: "Convolution"
  bottom: "conv2"
  top: "conv3"
  param {
    lr_mult: 1
    decay_mult: 1
  }
  param {
    lr_mult: 2
    decay_mult: 0
  }
  convolution_param {
    num_output: 256
    pad: 2
    kernel_size: 5
    stride: 1
    weight_filler {
      type: "xavier"
    }
    bias_filler {
      type: "constant"
      value: 0
    }
  }
}
layer {
  name: "relu3"
  type: "ReLU"
  bottom: "conv3"
  top: "conv3"
}
layer {
  name: "conv4"
  type: "Convolution"
  bottom: "conv3"
  top: "conv4"
  param {
    lr_mult: 1
    decay_mult: 1
  }
  param {
    lr_mult: 2
    decay_mult: 0
  }
  convolution_param {
    num_output: 256
    pad: 2
    kernel_size: 5
    stride: 1
    weight_filler {
      type: "xavier"
    }
    bias_filler {
      type: "constant"
      value: 0
    }
  }
}
layer {
  name: "relu4"
  type: "ReLU"
  bottom: "conv4"
  top: "conv4"
}
layer {
  name: "conv5"
  type: "Convolution"
  bottom: "conv4"
  top: "conv5"
  param {
    lr_mult: 1
    decay_mult: 1
  }
  param {
    lr_mult: 2
    decay_mult: 0
  }
  convolution_param {
    num_output: 256
    pad: 2
    kernel_size: 5
    stride: 1
    weight_filler {
      type: "xavier"
    }
    bias_filler {
      type: "constant"
      value: 0
    }
  }
}
layer {
  name: "relu5"
  type: "ReLU"
  bottom: "conv5"
  top: "conv5"
}
layer {
  name: "conv6"
  type: "Convolution"
  bottom: "conv5"
  top: "conv6"
  param {
    lr_mult: 1
    decay_mult: 1
  }
  param {
    lr_mult: 2
    decay_mult: 0
  }
  convolution_param {
    num_output: 256
    pad: 2
    kernel_size: 5
    stride: 1
    weight_filler {
      type: "xavier"
    }
    bias_filler {
      type: "constant"
      value: 0
    }
  }
}
layer {
  name: "relu6"
  type: "ReLU"
  bottom: "conv6"
  top: "conv6"
}
layer {
  name: "conv7"
  type: "Convolution"
  bottom: "conv6"
  top: "conv7"
  param {
    lr_mult: 1
    decay_mult: 1
  }
  param {
    lr_mult: 2
    decay_mult: 0
  }
  convolution_param {
    num_output: 256
    pad: 2
    kernel_size: 5
    stride: 1
    weight_filler {
      type: "xavier"
    }
    bias_filler {
      type: "constant"
      value: 0
    }
  }
}
layer {
  name: "relu7"
  type: "ReLU"
  bottom: "conv7"
  top: "conv7"
}
layer {
  name: "fc1"
  type: "Convolution"
  bottom: "conv7"
  top: "fc1"
  param {
    lr_mult: 1
    decay_mult: 1
  }
  param {
    lr_mult: 2
    decay_mult: 0
  }
  convolution_param {
    num_output: 1024
    pad: 6
    kernel_size: 5
    stride: 1
    weight_filler {
      type: "xavier"
    }
    bias_filler {
      type: "constant"
      value: 0
    }
    dilation: 3
  }
}
layer {
  name: "relu8"
  type: "ReLU"
  bottom: "fc1"
  top: "fc1"
}
layer {
  name: "fc2"
  type: "Convolution"
  bottom: "fc1"
  top: "fc2"
  param {
    lr_mult: 1
    decay_mult: 1
  }
  param {
    lr_mult: 2
    decay_mult: 0
  }
  convolution_param {
    num_output: 256
    kernel_size: 1
    weight_filler {
      type: "xavier"
    }
    bias_filler {
      type: "constant"
      value: 0
    }
  }
}
layer {
  name: "loss"
  type: "EuclideanLoss"
  bottom: "fc2"
  bottom: "label"
  top: "loss"
  include {
    phase: TRAIN
  }
}
I0715 16:04:00.923251  9278 layer_factory.hpp:77] Creating layer data
I0715 16:04:00.923301  9278 net.cpp:100] Creating Layer data
I0715 16:04:00.923327  9278 net.cpp:408] data -> data
I0715 16:04:00.923380  9278 net.cpp:408] data -> label
I0715 16:04:00.923416  9278 hdf5_data_layer.cpp:79] Loading list of HDF5 filenames from: /fast-data/leejang/two_stream_regression/con5_train_list.txt
I0715 16:04:00.923557  9278 hdf5_data_layer.cpp:93] Number of HDF5 files: 32
I0715 16:04:00.925546  9278 hdf5.cpp:32] Datatype class: H5T_FLOAT
I0715 16:04:01.495823  9278 net.cpp:150] Setting up data
I0715 16:04:01.495865  9278 net.cpp:157] Top shape: 10 1280 25 25 (8000000)
I0715 16:04:01.495870  9278 net.cpp:157] Top shape: 10 256 25 25 (1600000)
I0715 16:04:01.495873  9278 net.cpp:165] Memory required for data: 38400000
I0715 16:04:01.495889  9278 layer_factory.hpp:77] Creating layer conv1
I0715 16:04:01.495942  9278 net.cpp:100] Creating Layer conv1
I0715 16:04:01.495952  9278 net.cpp:434] conv1 <- data
I0715 16:04:01.495971  9278 net.cpp:408] conv1 -> conv1
I0715 16:04:02.677270  9278 net.cpp:150] Setting up conv1
I0715 16:04:02.677317  9278 net.cpp:157] Top shape: 10 256 25 25 (1600000)
I0715 16:04:02.677326  9278 net.cpp:165] Memory required for data: 44800000
I0715 16:04:02.677373  9278 layer_factory.hpp:77] Creating layer relu1
I0715 16:04:02.677398  9278 net.cpp:100] Creating Layer relu1
I0715 16:04:02.677412  9278 net.cpp:434] relu1 <- conv1
I0715 16:04:02.677426  9278 net.cpp:395] relu1 -> conv1 (in-place)
I0715 16:04:02.678436  9278 net.cpp:150] Setting up relu1
I0715 16:04:02.678472  9278 net.cpp:157] Top shape: 10 256 25 25 (1600000)
I0715 16:04:02.678478  9278 net.cpp:165] Memory required for data: 51200000
I0715 16:04:02.678489  9278 layer_factory.hpp:77] Creating layer conv2
I0715 16:04:02.678525  9278 net.cpp:100] Creating Layer conv2
I0715 16:04:02.678535  9278 net.cpp:434] conv2 <- conv1
I0715 16:04:02.678550  9278 net.cpp:408] conv2 -> conv2
I0715 16:04:02.703297  9278 net.cpp:150] Setting up conv2
I0715 16:04:02.703341  9278 net.cpp:157] Top shape: 10 256 25 25 (1600000)
I0715 16:04:02.703348  9278 net.cpp:165] Memory required for data: 57600000
I0715 16:04:02.703368  9278 layer_factory.hpp:77] Creating layer relu2
I0715 16:04:02.703387  9278 net.cpp:100] Creating Layer relu2
I0715 16:04:02.703397  9278 net.cpp:434] relu2 <- conv2
I0715 16:04:02.703410  9278 net.cpp:395] relu2 -> conv2 (in-place)
I0715 16:04:02.703816  9278 net.cpp:150] Setting up relu2
I0715 16:04:02.703848  9278 net.cpp:157] Top shape: 10 256 25 25 (1600000)
I0715 16:04:02.703855  9278 net.cpp:165] Memory required for data: 64000000
I0715 16:04:02.703861  9278 layer_factory.hpp:77] Creating layer conv3
I0715 16:04:02.703881  9278 net.cpp:100] Creating Layer conv3
I0715 16:04:02.703891  9278 net.cpp:434] conv3 <- conv2
I0715 16:04:02.703903  9278 net.cpp:408] conv3 -> conv3
I0715 16:04:02.726289  9278 net.cpp:150] Setting up conv3
I0715 16:04:02.726332  9278 net.cpp:157] Top shape: 10 256 25 25 (1600000)
I0715 16:04:02.726338  9278 net.cpp:165] Memory required for data: 70400000
I0715 16:04:02.726357  9278 layer_factory.hpp:77] Creating layer relu3
I0715 16:04:02.726369  9278 net.cpp:100] Creating Layer relu3
I0715 16:04:02.726378  9278 net.cpp:434] relu3 <- conv3
I0715 16:04:02.726392  9278 net.cpp:395] relu3 -> conv3 (in-place)
I0715 16:04:02.727046  9278 net.cpp:150] Setting up relu3
I0715 16:04:02.727083  9278 net.cpp:157] Top shape: 10 256 25 25 (1600000)
I0715 16:04:02.727089  9278 net.cpp:165] Memory required for data: 76800000
I0715 16:04:02.727097  9278 layer_factory.hpp:77] Creating layer conv4
I0715 16:04:02.727121  9278 net.cpp:100] Creating Layer conv4
I0715 16:04:02.727130  9278 net.cpp:434] conv4 <- conv3
I0715 16:04:02.727147  9278 net.cpp:408] conv4 -> conv4
I0715 16:04:02.747385  9278 net.cpp:150] Setting up conv4
I0715 16:04:02.747409  9278 net.cpp:157] Top shape: 10 256 25 25 (1600000)
I0715 16:04:02.747416  9278 net.cpp:165] Memory required for data: 83200000
I0715 16:04:02.747427  9278 layer_factory.hpp:77] Creating layer relu4
I0715 16:04:02.747447  9278 net.cpp:100] Creating Layer relu4
I0715 16:04:02.747457  9278 net.cpp:434] relu4 <- conv4
I0715 16:04:02.747468  9278 net.cpp:395] relu4 -> conv4 (in-place)
I0715 16:04:02.747831  9278 net.cpp:150] Setting up relu4
I0715 16:04:02.747865  9278 net.cpp:157] Top shape: 10 256 25 25 (1600000)
I0715 16:04:02.747871  9278 net.cpp:165] Memory required for data: 89600000
I0715 16:04:02.747877  9278 layer_factory.hpp:77] Creating layer conv5
I0715 16:04:02.747900  9278 net.cpp:100] Creating Layer conv5
I0715 16:04:02.747910  9278 net.cpp:434] conv5 <- conv4
I0715 16:04:02.747923  9278 net.cpp:408] conv5 -> conv5
I0715 16:04:02.766918  9278 net.cpp:150] Setting up conv5
I0715 16:04:02.766961  9278 net.cpp:157] Top shape: 10 256 25 25 (1600000)
I0715 16:04:02.766968  9278 net.cpp:165] Memory required for data: 96000000
I0715 16:04:02.766986  9278 layer_factory.hpp:77] Creating layer relu5
I0715 16:04:02.767005  9278 net.cpp:100] Creating Layer relu5
I0715 16:04:02.767014  9278 net.cpp:434] relu5 <- conv5
I0715 16:04:02.767027  9278 net.cpp:395] relu5 -> conv5 (in-place)
I0715 16:04:02.767767  9278 net.cpp:150] Setting up relu5
I0715 16:04:02.767797  9278 net.cpp:157] Top shape: 10 256 25 25 (1600000)
I0715 16:04:02.767803  9278 net.cpp:165] Memory required for data: 102400000
I0715 16:04:02.767809  9278 layer_factory.hpp:77] Creating layer conv6
I0715 16:04:02.767837  9278 net.cpp:100] Creating Layer conv6
I0715 16:04:02.767845  9278 net.cpp:434] conv6 <- conv5
I0715 16:04:02.767858  9278 net.cpp:408] conv6 -> conv6
I0715 16:04:02.785212  9278 net.cpp:150] Setting up conv6
I0715 16:04:02.785243  9278 net.cpp:157] Top shape: 10 256 25 25 (1600000)
I0715 16:04:02.785248  9278 net.cpp:165] Memory required for data: 108800000
I0715 16:04:02.785266  9278 layer_factory.hpp:77] Creating layer relu6
I0715 16:04:02.785281  9278 net.cpp:100] Creating Layer relu6
I0715 16:04:02.785290  9278 net.cpp:434] relu6 <- conv6
I0715 16:04:02.785300  9278 net.cpp:395] relu6 -> conv6 (in-place)
I0715 16:04:02.785969  9278 net.cpp:150] Setting up relu6
I0715 16:04:02.786015  9278 net.cpp:157] Top shape: 10 256 25 25 (1600000)
I0715 16:04:02.786020  9278 net.cpp:165] Memory required for data: 115200000
I0715 16:04:02.786026  9278 layer_factory.hpp:77] Creating layer conv7
I0715 16:04:02.786051  9278 net.cpp:100] Creating Layer conv7
I0715 16:04:02.786059  9278 net.cpp:434] conv7 <- conv6
I0715 16:04:02.786069  9278 net.cpp:408] conv7 -> conv7
I0715 16:04:02.802606  9278 net.cpp:150] Setting up conv7
I0715 16:04:02.802636  9278 net.cpp:157] Top shape: 10 256 25 25 (1600000)
I0715 16:04:02.802641  9278 net.cpp:165] Memory required for data: 121600000
I0715 16:04:02.802659  9278 layer_factory.hpp:77] Creating layer relu7
I0715 16:04:02.802680  9278 net.cpp:100] Creating Layer relu7
I0715 16:04:02.802687  9278 net.cpp:434] relu7 <- conv7
I0715 16:04:02.802721  9278 net.cpp:395] relu7 -> conv7 (in-place)
I0715 16:04:02.803033  9278 net.cpp:150] Setting up relu7
I0715 16:04:02.803056  9278 net.cpp:157] Top shape: 10 256 25 25 (1600000)
I0715 16:04:02.803061  9278 net.cpp:165] Memory required for data: 128000000
I0715 16:04:02.803066  9278 layer_factory.hpp:77] Creating layer fc1
I0715 16:04:02.803091  9278 net.cpp:100] Creating Layer fc1
I0715 16:04:02.803098  9278 net.cpp:434] fc1 <- conv7
I0715 16:04:02.803119  9278 net.cpp:408] fc1 -> fc1
I0715 16:04:02.855684  9278 net.cpp:150] Setting up fc1
I0715 16:04:02.855728  9278 net.cpp:157] Top shape: 10 1024 25 25 (6400000)
I0715 16:04:02.855732  9278 net.cpp:165] Memory required for data: 153600000
I0715 16:04:02.855749  9278 layer_factory.hpp:77] Creating layer relu8
I0715 16:04:02.855777  9278 net.cpp:100] Creating Layer relu8
I0715 16:04:02.855785  9278 net.cpp:434] relu8 <- fc1
I0715 16:04:02.855813  9278 net.cpp:395] relu8 -> fc1 (in-place)
I0715 16:04:02.856480  9278 net.cpp:150] Setting up relu8
I0715 16:04:02.856513  9278 net.cpp:157] Top shape: 10 1024 25 25 (6400000)
I0715 16:04:02.856516  9278 net.cpp:165] Memory required for data: 179200000
I0715 16:04:02.856520  9278 layer_factory.hpp:77] Creating layer fc2
I0715 16:04:02.856541  9278 net.cpp:100] Creating Layer fc2
I0715 16:04:02.856546  9278 net.cpp:434] fc2 <- fc1
I0715 16:04:02.856562  9278 net.cpp:408] fc2 -> fc2
I0715 16:04:02.862298  9278 net.cpp:150] Setting up fc2
I0715 16:04:02.862354  9278 net.cpp:157] Top shape: 10 256 25 25 (1600000)
I0715 16:04:02.862393  9278 net.cpp:165] Memory required for data: 185600000
I0715 16:04:02.862434  9278 layer_factory.hpp:77] Creating layer loss
I0715 16:04:02.862457  9278 net.cpp:100] Creating Layer loss
I0715 16:04:02.862468  9278 net.cpp:434] loss <- fc2
I0715 16:04:02.862478  9278 net.cpp:434] loss <- label
I0715 16:04:02.862498  9278 net.cpp:408] loss -> loss
I0715 16:04:02.862620  9278 net.cpp:150] Setting up loss
…
