…
I0716 15:02:39.470113 26389 solver.cpp:106] Creating training net from net file: /home/leejang/lib/two_stream_ssd_caffe/caffe/models/robot_regression/robot_regression_7cv_2fc_con10_w_robot.prototxt
I0716 15:02:39.470350 26389 net.cpp:322] The NetState phase (0) differed from the phase (1) specified by a rule in layer data
I0716 15:02:39.470476 26389 net.cpp:58] Initializing net from parameters: 
name: "RobotRegressionNet"
state {
  phase: TRAIN
  level: 0
  stage: ""
}
layer {
  name: "data"
  type: "HDF5Data"
  top: "data"
  top: "label"
  include {
    phase: TRAIN
  }
  hdf5_data_param {
    source: "/data/leejang/hdf5_files_4_regression_with_egohands_flow/con10_with_robot_video_train_list.txt"
    batch_size: 10
  }
}
layer {
  name: "conv1"
  type: "Convolution"
  bottom: "data"
  top: "conv1"
  param {
    lr_mult: 1
    decay_mult: 1
  }
  param {
    lr_mult: 2
    decay_mult: 0
  }
  convolution_param {
    num_output: 256
    pad: 2
    kernel_size: 5
    stride: 1
    weight_filler {
      type: "xavier"
    }
    bias_filler {
      type: "constant"
      value: 0
    }
  }
}
layer {
  name: "relu1"
  type: "ReLU"
  bottom: "conv1"
  top: "conv1"
}
layer {
  name: "conv2"
  type: "Convolution"
  bottom: "conv1"
  top: "conv2"
  param {
    lr_mult: 1
    decay_mult: 1
  }
  param {
    lr_mult: 2
    decay_mult: 0
  }
  convolution_param {
    num_output: 256
    pad: 2
    kernel_size: 5
    stride: 1
    weight_filler {
      type: "xavier"
    }
    bias_filler {
      type: "constant"
      value: 0
    }
  }
}
layer {
  name: "relu2"
  type: "ReLU"
  bottom: "conv2"
  top: "conv2"
}
layer {
  name: "conv3"
  type: "Convolution"
  bottom: "conv2"
  top: "conv3"
  param {
    lr_mult: 1
    decay_mult: 1
  }
  param {
    lr_mult: 2
    decay_mult: 0
  }
  convolution_param {
    num_output: 256
    pad: 2
    kernel_size: 5
    stride: 1
    weight_filler {
      type: "xavier"
    }
    bias_filler {
      type: "constant"
      value: 0
    }
  }
}
layer {
  name: "relu3"
  type: "ReLU"
  bottom: "conv3"
  top: "conv3"
}
layer {
  name: "conv4"
  type: "Convolution"
  bottom: "conv3"
  top: "conv4"
  param {
    lr_mult: 1
    decay_mult: 1
  }
  param {
    lr_mult: 2
    decay_mult: 0
  }
  convolution_param {
    num_output: 256
    pad: 2
    kernel_size: 5
    stride: 1
    weight_filler {
      type: "xavier"
    }
    bias_filler {
      type: "constant"
      value: 0
    }
  }
}
layer {
  name: "relu4"
  type: "ReLU"
  bottom: "conv4"
  top: "conv4"
}
layer {
  name: "conv5"
  type: "Convolution"
  bottom: "conv4"
  top: "conv5"
  param {
    lr_mult: 1
    decay_mult: 1
  }
  param {
    lr_mult: 2
    decay_mult: 0
  }
  convolution_param {
    num_output: 256
    pad: 2
    kernel_size: 5
    stride: 1
    weight_filler {
      type: "xavier"
    }
    bias_filler {
      type: "constant"
      value: 0
    }
  }
}
layer {
  name: "relu5"
  type: "ReLU"
  bottom: "conv5"
  top: "conv5"
}
layer {
  name: "conv6"
  type: "Convolution"
  bottom: "conv5"
  top: "conv6"
  param {
    lr_mult: 1
    decay_mult: 1
  }
  param {
    lr_mult: 2
    decay_mult: 0
  }
  convolution_param {
    num_output: 256
    pad: 2
    kernel_size: 5
    stride: 1
    weight_filler {
      type: "xavier"
    }
    bias_filler {
      type: "constant"
      value: 0
    }
  }
}
layer {
  name: "relu6"
  type: "ReLU"
  bottom: "conv6"
  top: "conv6"
}
layer {
  name: "conv7"
  type: "Convolution"
  bottom: "conv6"
  top: "conv7"
  param {
    lr_mult: 1
    decay_mult: 1
  }
  param {
    lr_mult: 2
    decay_mult: 0
  }
  convolution_param {
    num_output: 256
    pad: 2
    kernel_size: 5
    stride: 1
    weight_filler {
      type: "xavier"
    }
    bias_filler {
      type: "constant"
      value: 0
    }
  }
}
layer {
  name: "relu7"
  type: "ReLU"
  bottom: "conv7"
  top: "conv7"
}
layer {
  name: "fc1"
  type: "Convolution"
  bottom: "conv7"
  top: "fc1"
  param {
    lr_mult: 1
    decay_mult: 1
  }
  param {
    lr_mult: 2
    decay_mult: 0
  }
  convolution_param {
    num_output: 1024
    pad: 6
    kernel_size: 5
    stride: 1
    weight_filler {
      type: "xavier"
    }
    bias_filler {
      type: "constant"
      value: 0
    }
    dilation: 3
  }
}
layer {
  name: "relu8"
  type: "ReLU"
  bottom: "fc1"
  top: "fc1"
}
layer {
  name: "fc2"
  type: "Convolution"
  bottom: "fc1"
  top: "fc2"
  param {
    lr_mult: 1
    decay_mult: 1
  }
  param {
    lr_mult: 2
    decay_mult: 0
  }
  convolution_param {
    num_output: 256
    kernel_size: 1
    weight_filler {
      type: "xavier"
    }
    bias_filler {
      type: "constant"
      value: 0
    }
  }
}
layer {
  name: "loss"
  type: "EuclideanLoss"
  bottom: "fc2"
  bottom: "label"
  top: "loss"
  include {
    phase: TRAIN
  }
}
I0716 15:02:39.470569 26389 layer_factory.hpp:77] Creating layer data
I0716 15:02:39.470587 26389 net.cpp:100] Creating Layer data
I0716 15:02:39.470599 26389 net.cpp:408] data -> data
I0716 15:02:39.470621 26389 net.cpp:408] data -> label
I0716 15:02:39.470640 26389 hdf5_data_layer.cpp:79] Loading list of HDF5 filenames from: /data/leejang/hdf5_files_4_regression_with_egohands_flow/con10_with_robot_video_train_list.txt
I0716 15:02:39.470818 26389 hdf5_data_layer.cpp:93] Number of HDF5 files: 52
I0716 15:02:39.471662 26389 hdf5.cpp:32] Datatype class: H5T_FLOAT
I0716 15:02:40.262154 26389 net.cpp:150] Setting up data
I0716 15:02:40.262197 26389 net.cpp:157] Top shape: 10 2560 25 25 (16000000)
I0716 15:02:40.262202 26389 net.cpp:157] Top shape: 10 256 25 25 (1600000)
I0716 15:02:40.262207 26389 net.cpp:165] Memory required for data: 70400000
I0716 15:02:40.262217 26389 layer_factory.hpp:77] Creating layer conv1
I0716 15:02:40.262241 26389 net.cpp:100] Creating Layer conv1
I0716 15:02:40.262249 26389 net.cpp:434] conv1 <- data
I0716 15:02:40.262265 26389 net.cpp:408] conv1 -> conv1
I0716 15:02:44.784045 26389 net.cpp:150] Setting up conv1
I0716 15:02:44.784090 26389 net.cpp:157] Top shape: 10 256 25 25 (1600000)
I0716 15:02:44.784098 26389 net.cpp:165] Memory required for data: 76800000
I0716 15:02:44.784149 26389 layer_factory.hpp:77] Creating layer relu1
I0716 15:02:44.784176 26389 net.cpp:100] Creating Layer relu1
I0716 15:02:44.784185 26389 net.cpp:434] relu1 <- conv1
I0716 15:02:44.784198 26389 net.cpp:395] relu1 -> conv1 (in-place)
I0716 15:02:44.784574 26389 net.cpp:150] Setting up relu1
I0716 15:02:44.784591 26389 net.cpp:157] Top shape: 10 256 25 25 (1600000)
I0716 15:02:44.784597 26389 net.cpp:165] Memory required for data: 83200000
I0716 15:02:44.784605 26389 layer_factory.hpp:77] Creating layer conv2
I0716 15:02:44.784634 26389 net.cpp:100] Creating Layer conv2
I0716 15:02:44.784642 26389 net.cpp:434] conv2 <- conv1
I0716 15:02:44.784662 26389 net.cpp:408] conv2 -> conv2
I0716 15:02:44.805316 26389 net.cpp:150] Setting up conv2
I0716 15:02:44.805341 26389 net.cpp:157] Top shape: 10 256 25 25 (1600000)
I0716 15:02:44.805348 26389 net.cpp:165] Memory required for data: 89600000
I0716 15:02:44.805371 26389 layer_factory.hpp:77] Creating layer relu2
I0716 15:02:44.805392 26389 net.cpp:100] Creating Layer relu2
I0716 15:02:44.805404 26389 net.cpp:434] relu2 <- conv2
I0716 15:02:44.805419 26389 net.cpp:395] relu2 -> conv2 (in-place)
I0716 15:02:44.805801 26389 net.cpp:150] Setting up relu2
I0716 15:02:44.805820 26389 net.cpp:157] Top shape: 10 256 25 25 (1600000)
I0716 15:02:44.805829 26389 net.cpp:165] Memory required for data: 96000000
I0716 15:02:44.805841 26389 layer_factory.hpp:77] Creating layer conv3
I0716 15:02:44.805866 26389 net.cpp:100] Creating Layer conv3
I0716 15:02:44.805898 26389 net.cpp:434] conv3 <- conv2
I0716 15:02:44.805927 26389 net.cpp:408] conv3 -> conv3
I0716 15:02:44.828644 26389 net.cpp:150] Setting up conv3
I0716 15:02:44.828680 26389 net.cpp:157] Top shape: 10 256 25 25 (1600000)
I0716 15:02:44.828688 26389 net.cpp:165] Memory required for data: 102400000
I0716 15:02:44.828713 26389 layer_factory.hpp:77] Creating layer relu3
I0716 15:02:44.828739 26389 net.cpp:100] Creating Layer relu3
I0716 15:02:44.828750 26389 net.cpp:434] relu3 <- conv3
I0716 15:02:44.828766 26389 net.cpp:395] relu3 -> conv3 (in-place)
I0716 15:02:44.829634 26389 net.cpp:150] Setting up relu3
I0716 15:02:44.829656 26389 net.cpp:157] Top shape: 10 256 25 25 (1600000)
I0716 15:02:44.829668 26389 net.cpp:165] Memory required for data: 108800000
I0716 15:02:44.829681 26389 layer_factory.hpp:77] Creating layer conv4
I0716 15:02:44.829717 26389 net.cpp:100] Creating Layer conv4
I0716 15:02:44.829727 26389 net.cpp:434] conv4 <- conv3
I0716 15:02:44.829747 26389 net.cpp:408] conv4 -> conv4
I0716 15:02:44.849647 26389 net.cpp:150] Setting up conv4
I0716 15:02:44.849678 26389 net.cpp:157] Top shape: 10 256 25 25 (1600000)
I0716 15:02:44.849689 26389 net.cpp:165] Memory required for data: 115200000
I0716 15:02:44.849709 26389 layer_factory.hpp:77] Creating layer relu4
I0716 15:02:44.849728 26389 net.cpp:100] Creating Layer relu4
I0716 15:02:44.849740 26389 net.cpp:434] relu4 <- conv4
I0716 15:02:44.849756 26389 net.cpp:395] relu4 -> conv4 (in-place)
I0716 15:02:44.850129 26389 net.cpp:150] Setting up relu4
I0716 15:02:44.850147 26389 net.cpp:157] Top shape: 10 256 25 25 (1600000)
I0716 15:02:44.850152 26389 net.cpp:165] Memory required for data: 121600000
I0716 15:02:44.850162 26389 layer_factory.hpp:77] Creating layer conv5
I0716 15:02:44.850186 26389 net.cpp:100] Creating Layer conv5
I0716 15:02:44.850195 26389 net.cpp:434] conv5 <- conv4
I0716 15:02:44.850220 26389 net.cpp:408] conv5 -> conv5
I0716 15:02:44.869877 26389 net.cpp:150] Setting up conv5
I0716 15:02:44.869904 26389 net.cpp:157] Top shape: 10 256 25 25 (1600000)
I0716 15:02:44.869910 26389 net.cpp:165] Memory required for data: 128000000
I0716 15:02:44.869941 26389 layer_factory.hpp:77] Creating layer relu5
I0716 15:02:44.869958 26389 net.cpp:100] Creating Layer relu5
I0716 15:02:44.869973 26389 net.cpp:434] relu5 <- conv5
I0716 15:02:44.869989 26389 net.cpp:395] relu5 -> conv5 (in-place)
I0716 15:02:44.870357 26389 net.cpp:150] Setting up relu5
I0716 15:02:44.870376 26389 net.cpp:157] Top shape: 10 256 25 25 (1600000)
I0716 15:02:44.870383 26389 net.cpp:165] Memory required for data: 134400000
I0716 15:02:44.870391 26389 layer_factory.hpp:77] Creating layer conv6
I0716 15:02:44.870417 26389 net.cpp:100] Creating Layer conv6
I0716 15:02:44.870429 26389 net.cpp:434] conv6 <- conv5
I0716 15:02:44.870441 26389 net.cpp:408] conv6 -> conv6
I0716 15:02:44.889930 26389 net.cpp:150] Setting up conv6
I0716 15:02:44.889956 26389 net.cpp:157] Top shape: 10 256 25 25 (1600000)
I0716 15:02:44.889964 26389 net.cpp:165] Memory required for data: 140800000
I0716 15:02:44.889978 26389 layer_factory.hpp:77] Creating layer relu6
I0716 15:02:44.890002 26389 net.cpp:100] Creating Layer relu6
I0716 15:02:44.890012 26389 net.cpp:434] relu6 <- conv6
I0716 15:02:44.890027 26389 net.cpp:395] relu6 -> conv6 (in-place)
I0716 15:02:44.890866 26389 net.cpp:150] Setting up relu6
I0716 15:02:44.890889 26389 net.cpp:157] Top shape: 10 256 25 25 (1600000)
I0716 15:02:44.890897 26389 net.cpp:165] Memory required for data: 147200000
I0716 15:02:44.890905 26389 layer_factory.hpp:77] Creating layer conv7
I0716 15:02:44.890931 26389 net.cpp:100] Creating Layer conv7
I0716 15:02:44.890942 26389 net.cpp:434] conv7 <- conv6
I0716 15:02:44.890960 26389 net.cpp:408] conv7 -> conv7
I0716 15:02:44.910507 26389 net.cpp:150] Setting up conv7
I0716 15:02:44.910534 26389 net.cpp:157] Top shape: 10 256 25 25 (1600000)
I0716 15:02:44.910542 26389 net.cpp:165] Memory required for data: 153600000
I0716 15:02:44.910557 26389 layer_factory.hpp:77] Creating layer relu7
I0716 15:02:44.910610 26389 net.cpp:100] Creating Layer relu7
I0716 15:02:44.910621 26389 net.cpp:434] relu7 <- conv7
I0716 15:02:44.910640 26389 net.cpp:395] relu7 -> conv7 (in-place)
I0716 15:02:44.911020 26389 net.cpp:150] Setting up relu7
I0716 15:02:44.911037 26389 net.cpp:157] Top shape: 10 256 25 25 (1600000)
I0716 15:02:44.911044 26389 net.cpp:165] Memory required for data: 160000000
I0716 15:02:44.911051 26389 layer_factory.hpp:77] Creating layer fc1
I0716 15:02:44.911079 26389 net.cpp:100] Creating Layer fc1
I0716 15:02:44.911092 26389 net.cpp:434] fc1 <- conv7
I0716 15:02:44.911109 26389 net.cpp:408] fc1 -> fc1
I0716 15:02:44.982734 26389 net.cpp:150] Setting up fc1
I0716 15:02:44.982779 26389 net.cpp:157] Top shape: 10 1024 25 25 (6400000)
I0716 15:02:44.982786 26389 net.cpp:165] Memory required for data: 185600000
I0716 15:02:44.982808 26389 layer_factory.hpp:77] Creating layer relu8
I0716 15:02:44.982841 26389 net.cpp:100] Creating Layer relu8
I0716 15:02:44.982851 26389 net.cpp:434] relu8 <- fc1
I0716 15:02:44.982868 26389 net.cpp:395] relu8 -> fc1 (in-place)
I0716 15:02:44.983335 26389 net.cpp:150] Setting up relu8
I0716 15:02:44.983355 26389 net.cpp:157] Top shape: 10 1024 25 25 (6400000)
I0716 15:02:44.983361 26389 net.cpp:165] Memory required for data: 211200000
I0716 15:02:44.983367 26389 layer_factory.hpp:77] Creating layer fc2
I0716 15:02:44.983392 26389 net.cpp:100] Creating Layer fc2
I0716 15:02:44.983402 26389 net.cpp:434] fc2 <- fc1
I0716 15:02:44.983422 26389 net.cpp:408] fc2 -> fc2
I0716 15:02:44.989251 26389 net.cpp:150] Setting up fc2
I0716 15:02:44.989276 26389 net.cpp:157] Top shape: 10 256 25 25 (1600000)
I0716 15:02:44.989281 26389 net.cpp:165] Memory required for data: 217600000
I0716 15:02:44.989308 26389 layer_factory.hpp:77] Creating layer loss
I0716 15:02:44.989332 26389 net.cpp:100] Creating Layer loss
I0716 15:02:44.989344 26389 net.cpp:434] loss <- fc2
I0716 15:02:44.989359 26389 net.cpp:434] loss <- label
I0716 15:02:44.989378 26389 net.cpp:408] loss -> loss
I0716 15:02:44.989475 26389 net.cpp:150] Setting up loss
…
