…
I0715 16:10:54.351899  9568 solver.cpp:106] Creating training net from net file: /home/leejang/lib/two_stream_ssd_caffe/caffe/models/robot_regression/robot_regression_7cv_2fc_single.prototxt
I0715 16:10:54.352145  9568 net.cpp:322] The NetState phase (0) differed from the phase (1) specified by a rule in layer data
I0715 16:10:54.352290  9568 net.cpp:58] Initializing net from parameters: 
name: "RobotRegressionNet"
state {
  phase: TRAIN
  level: 0
  stage: ""
}
layer {
  name: "data"
  type: "HDF5Data"
  top: "data"
  top: "label"
  include {
    phase: TRAIN
  }
  hdf5_data_param {
    source: "/fast-data/leejang/two_stream_regression/single_train_list.txt"
    batch_size: 10
  }
}
layer {
  name: "conv1"
  type: "Convolution"
  bottom: "data"
  top: "conv1"
  param {
    lr_mult: 1
    decay_mult: 1
  }
  param {
    lr_mult: 2
    decay_mult: 0
  }
  convolution_param {
    num_output: 256
    pad: 2
    kernel_size: 5
    stride: 1
    weight_filler {
      type: "xavier"
    }
    bias_filler {
      type: "constant"
      value: 0
    }
  }
}
layer {
  name: "relu1"
  type: "ReLU"
  bottom: "conv1"
  top: "conv1"
}
layer {
  name: "conv2"
  type: "Convolution"
  bottom: "conv1"
  top: "conv2"
  param {
    lr_mult: 1
    decay_mult: 1
  }
  param {
    lr_mult: 2
    decay_mult: 0
  }
  convolution_param {
    num_output: 256
    pad: 2
    kernel_size: 5
    stride: 1
    weight_filler {
      type: "xavier"
    }
    bias_filler {
      type: "constant"
      value: 0
    }
  }
}
layer {
  name: "relu2"
  type: "ReLU"
  bottom: "conv2"
  top: "conv2"
}
layer {
  name: "conv3"
  type: "Convolution"
  bottom: "conv2"
  top: "conv3"
  param {
    lr_mult: 1
    decay_mult: 1
  }
  param {
    lr_mult: 2
    decay_mult: 0
  }
  convolution_param {
    num_output: 256
    pad: 2
    kernel_size: 5
    stride: 1
    weight_filler {
      type: "xavier"
    }
    bias_filler {
      type: "constant"
      value: 0
    }
  }
}
layer {
  name: "relu3"
  type: "ReLU"
  bottom: "conv3"
  top: "conv3"
}
layer {
  name: "conv4"
  type: "Convolution"
  bottom: "conv3"
  top: "conv4"
  param {
    lr_mult: 1
    decay_mult: 1
  }
  param {
    lr_mult: 2
    decay_mult: 0
  }
  convolution_param {
    num_output: 256
    pad: 2
    kernel_size: 5
    stride: 1
    weight_filler {
      type: "xavier"
    }
    bias_filler {
      type: "constant"
      value: 0
    }
  }
}
layer {
  name: "relu4"
  type: "ReLU"
  bottom: "conv4"
  top: "conv4"
}
layer {
  name: "conv5"
  type: "Convolution"
  bottom: "conv4"
  top: "conv5"
  param {
    lr_mult: 1
    decay_mult: 1
  }
  param {
    lr_mult: 2
    decay_mult: 0
  }
  convolution_param {
    num_output: 256
    pad: 2
    kernel_size: 5
    stride: 1
    weight_filler {
      type: "xavier"
    }
    bias_filler {
      type: "constant"
      value: 0
    }
  }
}
layer {
  name: "relu5"
  type: "ReLU"
  bottom: "conv5"
  top: "conv5"
}
layer {
  name: "conv6"
  type: "Convolution"
  bottom: "conv5"
  top: "conv6"
  param {
    lr_mult: 1
    decay_mult: 1
  }
  param {
    lr_mult: 2
    decay_mult: 0
  }
  convolution_param {
    num_output: 256
    pad: 2
    kernel_size: 5
    stride: 1
    weight_filler {
      type: "xavier"
    }
    bias_filler {
      type: "constant"
      value: 0
    }
  }
}
layer {
  name: "relu6"
  type: "ReLU"
  bottom: "conv6"
  top: "conv6"
}
layer {
  name: "conv7"
  type: "Convolution"
  bottom: "conv6"
  top: "conv7"
  param {
    lr_mult: 1
    decay_mult: 1
  }
  param {
    lr_mult: 2
    decay_mult: 0
  }
  convolution_param {
    num_output: 256
    pad: 2
    kernel_size: 5
    stride: 1
    weight_filler {
      type: "xavier"
    }
    bias_filler {
      type: "constant"
      value: 0
    }
  }
}
layer {
  name: "relu7"
  type: "ReLU"
  bottom: "conv7"
  top: "conv7"
}
layer {
  name: "fc1"
  type: "Convolution"
  bottom: "conv7"
  top: "fc1"
  param {
    lr_mult: 1
    decay_mult: 1
  }
  param {
    lr_mult: 2
    decay_mult: 0
  }
  convolution_param {
    num_output: 1024
    pad: 6
    kernel_size: 5
    stride: 1
    weight_filler {
      type: "xavier"
    }
    bias_filler {
      type: "constant"
      value: 0
    }
    dilation: 3
  }
}
layer {
  name: "relu8"
  type: "ReLU"
  bottom: "fc1"
  top: "fc1"
}
layer {
  name: "fc2"
  type: "Convolution"
  bottom: "fc1"
  top: "fc2"
  param {
    lr_mult: 1
    decay_mult: 1
  }
  param {
    lr_mult: 2
    decay_mult: 0
  }
  convolution_param {
    num_output: 256
    kernel_size: 1
    weight_filler {
      type: "xavier"
    }
    bias_filler {
      type: "constant"
      value: 0
    }
  }
}
layer {
  name: "loss"
  type: "EuclideanLoss"
  bottom: "fc2"
  bottom: "label"
  top: "loss"
  include {
    phase: TRAIN
  }
}
I0715 16:10:54.352383  9568 layer_factory.hpp:77] Creating layer data
I0715 16:10:54.352397  9568 net.cpp:100] Creating Layer data
I0715 16:10:54.352406  9568 net.cpp:408] data -> data
I0715 16:10:54.352432  9568 net.cpp:408] data -> label
I0715 16:10:54.352443  9568 hdf5_data_layer.cpp:79] Loading list of HDF5 filenames from: /fast-data/leejang/two_stream_regression/single_train_list.txt
I0715 16:10:54.352496  9568 hdf5_data_layer.cpp:93] Number of HDF5 files: 32
I0715 16:10:54.411217  9568 hdf5.cpp:32] Datatype class: H5T_FLOAT
I0715 16:10:56.706867  9568 net.cpp:150] Setting up data
I0715 16:10:56.706912  9568 net.cpp:157] Top shape: 10 256 25 25 (1600000)
I0715 16:10:56.706918  9568 net.cpp:157] Top shape: 10 256 25 25 (1600000)
I0715 16:10:56.706920  9568 net.cpp:165] Memory required for data: 12800000
I0715 16:10:56.706928  9568 layer_factory.hpp:77] Creating layer conv1
I0715 16:10:56.706953  9568 net.cpp:100] Creating Layer conv1
I0715 16:10:56.706959  9568 net.cpp:434] conv1 <- data
I0715 16:10:56.706977  9568 net.cpp:408] conv1 -> conv1
I0715 16:10:57.620697  9568 net.cpp:150] Setting up conv1
I0715 16:10:57.620738  9568 net.cpp:157] Top shape: 10 256 25 25 (1600000)
I0715 16:10:57.620743  9568 net.cpp:165] Memory required for data: 19200000
I0715 16:10:57.620762  9568 layer_factory.hpp:77] Creating layer relu1
I0715 16:10:57.620774  9568 net.cpp:100] Creating Layer relu1
I0715 16:10:57.620779  9568 net.cpp:434] relu1 <- conv1
I0715 16:10:57.620785  9568 net.cpp:395] relu1 -> conv1 (in-place)
I0715 16:10:57.621402  9568 net.cpp:150] Setting up relu1
I0715 16:10:57.621414  9568 net.cpp:157] Top shape: 10 256 25 25 (1600000)
I0715 16:10:57.621418  9568 net.cpp:165] Memory required for data: 25600000
I0715 16:10:57.621423  9568 layer_factory.hpp:77] Creating layer conv2
I0715 16:10:57.621435  9568 net.cpp:100] Creating Layer conv2
I0715 16:10:57.621443  9568 net.cpp:434] conv2 <- conv1
I0715 16:10:57.621449  9568 net.cpp:408] conv2 -> conv2
I0715 16:10:57.632483  9568 net.cpp:150] Setting up conv2
I0715 16:10:57.632496  9568 net.cpp:157] Top shape: 10 256 25 25 (1600000)
I0715 16:10:57.632500  9568 net.cpp:165] Memory required for data: 32000000
I0715 16:10:57.632509  9568 layer_factory.hpp:77] Creating layer relu2
I0715 16:10:57.632516  9568 net.cpp:100] Creating Layer relu2
I0715 16:10:57.632520  9568 net.cpp:434] relu2 <- conv2
I0715 16:10:57.632525  9568 net.cpp:395] relu2 -> conv2 (in-place)
I0715 16:10:57.633628  9568 net.cpp:150] Setting up relu2
I0715 16:10:57.633639  9568 net.cpp:157] Top shape: 10 256 25 25 (1600000)
I0715 16:10:57.633643  9568 net.cpp:165] Memory required for data: 38400000
I0715 16:10:57.633646  9568 layer_factory.hpp:77] Creating layer conv3
I0715 16:10:57.633656  9568 net.cpp:100] Creating Layer conv3
I0715 16:10:57.633662  9568 net.cpp:434] conv3 <- conv2
I0715 16:10:57.633687  9568 net.cpp:408] conv3 -> conv3
I0715 16:10:57.644894  9568 net.cpp:150] Setting up conv3
I0715 16:10:57.644908  9568 net.cpp:157] Top shape: 10 256 25 25 (1600000)
I0715 16:10:57.644912  9568 net.cpp:165] Memory required for data: 44800000
I0715 16:10:57.644922  9568 layer_factory.hpp:77] Creating layer relu3
I0715 16:10:57.644930  9568 net.cpp:100] Creating Layer relu3
I0715 16:10:57.644937  9568 net.cpp:434] relu3 <- conv3
I0715 16:10:57.644943  9568 net.cpp:395] relu3 -> conv3 (in-place)
I0715 16:10:57.647141  9568 net.cpp:150] Setting up relu3
I0715 16:10:57.647153  9568 net.cpp:157] Top shape: 10 256 25 25 (1600000)
I0715 16:10:57.647157  9568 net.cpp:165] Memory required for data: 51200000
I0715 16:10:57.647161  9568 layer_factory.hpp:77] Creating layer conv4
I0715 16:10:57.647171  9568 net.cpp:100] Creating Layer conv4
I0715 16:10:57.647176  9568 net.cpp:434] conv4 <- conv3
I0715 16:10:57.647186  9568 net.cpp:408] conv4 -> conv4
I0715 16:10:57.658242  9568 net.cpp:150] Setting up conv4
I0715 16:10:57.658255  9568 net.cpp:157] Top shape: 10 256 25 25 (1600000)
I0715 16:10:57.658278  9568 net.cpp:165] Memory required for data: 57600000
I0715 16:10:57.658285  9568 layer_factory.hpp:77] Creating layer relu4
I0715 16:10:57.658293  9568 net.cpp:100] Creating Layer relu4
I0715 16:10:57.658298  9568 net.cpp:434] relu4 <- conv4
I0715 16:10:57.658304  9568 net.cpp:395] relu4 -> conv4 (in-place)
I0715 16:10:57.659363  9568 net.cpp:150] Setting up relu4
I0715 16:10:57.659373  9568 net.cpp:157] Top shape: 10 256 25 25 (1600000)
I0715 16:10:57.659375  9568 net.cpp:165] Memory required for data: 64000000
I0715 16:10:57.659380  9568 layer_factory.hpp:77] Creating layer conv5
I0715 16:10:57.659394  9568 net.cpp:100] Creating Layer conv5
I0715 16:10:57.659400  9568 net.cpp:434] conv5 <- conv4
I0715 16:10:57.659411  9568 net.cpp:408] conv5 -> conv5
I0715 16:10:57.670601  9568 net.cpp:150] Setting up conv5
I0715 16:10:57.670616  9568 net.cpp:157] Top shape: 10 256 25 25 (1600000)
I0715 16:10:57.670639  9568 net.cpp:165] Memory required for data: 70400000
I0715 16:10:57.670651  9568 layer_factory.hpp:77] Creating layer relu5
I0715 16:10:57.670658  9568 net.cpp:100] Creating Layer relu5
I0715 16:10:57.670662  9568 net.cpp:434] relu5 <- conv5
I0715 16:10:57.670670  9568 net.cpp:395] relu5 -> conv5 (in-place)
I0715 16:10:57.672857  9568 net.cpp:150] Setting up relu5
I0715 16:10:57.672868  9568 net.cpp:157] Top shape: 10 256 25 25 (1600000)
I0715 16:10:57.672890  9568 net.cpp:165] Memory required for data: 76800000
I0715 16:10:57.672894  9568 layer_factory.hpp:77] Creating layer conv6
I0715 16:10:57.672905  9568 net.cpp:100] Creating Layer conv6
I0715 16:10:57.672909  9568 net.cpp:434] conv6 <- conv5
I0715 16:10:57.672915  9568 net.cpp:408] conv6 -> conv6
I0715 16:10:57.684751  9568 net.cpp:150] Setting up conv6
I0715 16:10:57.684763  9568 net.cpp:157] Top shape: 10 256 25 25 (1600000)
I0715 16:10:57.684787  9568 net.cpp:165] Memory required for data: 83200000
I0715 16:10:57.684792  9568 layer_factory.hpp:77] Creating layer relu6
I0715 16:10:57.684800  9568 net.cpp:100] Creating Layer relu6
I0715 16:10:57.684803  9568 net.cpp:434] relu6 <- conv6
I0715 16:10:57.684809  9568 net.cpp:395] relu6 -> conv6 (in-place)
I0715 16:10:57.685890  9568 net.cpp:150] Setting up relu6
I0715 16:10:57.685900  9568 net.cpp:157] Top shape: 10 256 25 25 (1600000)
I0715 16:10:57.685904  9568 net.cpp:165] Memory required for data: 89600000
I0715 16:10:57.685907  9568 layer_factory.hpp:77] Creating layer conv7
I0715 16:10:57.685917  9568 net.cpp:100] Creating Layer conv7
I0715 16:10:57.685922  9568 net.cpp:434] conv7 <- conv6
I0715 16:10:57.685930  9568 net.cpp:408] conv7 -> conv7
I0715 16:10:57.697113  9568 net.cpp:150] Setting up conv7
I0715 16:10:57.697146  9568 net.cpp:157] Top shape: 10 256 25 25 (1600000)
I0715 16:10:57.697150  9568 net.cpp:165] Memory required for data: 96000000
I0715 16:10:57.697160  9568 layer_factory.hpp:77] Creating layer relu7
I0715 16:10:57.697166  9568 net.cpp:100] Creating Layer relu7
I0715 16:10:57.697170  9568 net.cpp:434] relu7 <- conv7
I0715 16:10:57.697188  9568 net.cpp:395] relu7 -> conv7 (in-place)
I0715 16:10:57.698050  9568 net.cpp:150] Setting up relu7
I0715 16:10:57.698060  9568 net.cpp:157] Top shape: 10 256 25 25 (1600000)
I0715 16:10:57.698083  9568 net.cpp:165] Memory required for data: 102400000
I0715 16:10:57.698087  9568 layer_factory.hpp:77] Creating layer fc1
I0715 16:10:57.698097  9568 net.cpp:100] Creating Layer fc1
I0715 16:10:57.698101  9568 net.cpp:434] fc1 <- conv7
I0715 16:10:57.698110  9568 net.cpp:408] fc1 -> fc1
I0715 16:10:57.732157  9568 net.cpp:150] Setting up fc1
I0715 16:10:57.732197  9568 net.cpp:157] Top shape: 10 1024 25 25 (6400000)
I0715 16:10:57.732201  9568 net.cpp:165] Memory required for data: 128000000
I0715 16:10:57.732210  9568 layer_factory.hpp:77] Creating layer relu8
I0715 16:10:57.732224  9568 net.cpp:100] Creating Layer relu8
I0715 16:10:57.732230  9568 net.cpp:434] relu8 <- fc1
I0715 16:10:57.732241  9568 net.cpp:395] relu8 -> fc1 (in-place)
I0715 16:10:57.732746  9568 net.cpp:150] Setting up relu8
I0715 16:10:57.732758  9568 net.cpp:157] Top shape: 10 1024 25 25 (6400000)
I0715 16:10:57.732780  9568 net.cpp:165] Memory required for data: 153600000
I0715 16:10:57.732785  9568 layer_factory.hpp:77] Creating layer fc2
I0715 16:10:57.732797  9568 net.cpp:100] Creating Layer fc2
I0715 16:10:57.732800  9568 net.cpp:434] fc2 <- fc1
I0715 16:10:57.732812  9568 net.cpp:408] fc2 -> fc2
I0715 16:10:57.736610  9568 net.cpp:150] Setting up fc2
I0715 16:10:57.736644  9568 net.cpp:157] Top shape: 10 256 25 25 (1600000)
I0715 16:10:57.736647  9568 net.cpp:165] Memory required for data: 160000000
I0715 16:10:57.736660  9568 layer_factory.hpp:77] Creating layer loss
I0715 16:10:57.736668  9568 net.cpp:100] Creating Layer loss
I0715 16:10:57.736675  9568 net.cpp:434] loss <- fc2
I0715 16:10:57.736681  9568 net.cpp:434] loss <- label
I0715 16:10:57.736691  9568 net.cpp:408] loss -> loss
I0715 16:10:57.736742  9568 net.cpp:150] Setting up loss
…
